…
orflow-1.15.2/python3.6/tensorflow_core/python/ops/resource_variable_ops.py:1630: calling BaseResourceVariable.__init__ (from tensorflow.python.ops.resource_variable_ops) with constraint is deprecated and will be removed in a future version.\n","Instructions for updating:\n","If using Keras pass *_constraint arguments to layers.\n","Model: \"sequential\"\n","_________________________________________________________________\n","Layer (type)                 Output Shape              Param #   \n","=================================================================\n","conv2d (Conv2D)              (None, 31, 98, 24)        1824      \n","_________________________________________________________________\n","conv2d_1 (Conv2D)            (None, 14, 47, 36)        21636     \n","_________________________________________________________________\n","conv2d_2 (Conv2D)            (None, 5, 22, 48)         43248     \n","_________________________________________________________________\n","conv2d_3 (Conv2D)            (None, 5, 22, 64)         27712     \n","_________________________________________________________________\n","conv2d_4 (Conv2D)            (None, 5, 22, 64)         36928     \n","_________________________________________________________________\n","flatten (Flatten)            (None, 7040)              0         \n","_________________________________________________________________\n","dense (Dense)                (None, 100)               704100    \n","_________________________________________________________________\n","dense_1 (Dense)              (None, 50)                5050      \n","_________________________________________________________________\n","dense_2 (Dense)              (None, 10)                510       \n","_________________________________________________________________\n","dense_3 (Dense)              (None, 1)                 11        \n","=================================================================\n","Total params: 841,019\n","Trainable params: 841,019\n","Non-trainable params: 0\n","_________________________________________________________________\n","None\n"],"name":"stdout"}]},{"cell_type":"code","metadata":{"id":"2O5kVuUiZy2o","colab_type":"code","outputId":"359b58c4-371e-4a42-bac4-49614c8af5e7","executionInf
…
